…
test: 100%|██████████| 2416/2416 [00:01<00:00, 1636.65it/s]
Model: "model"
__________________________________________________________________________________________________
Layer (type)                    Output Shape         Param #     Connected to                     
==================================================================================================
input_1 (InputLayer)            [(None, 40, 40, 9)]  0                                            
__________________________________________________________________________________________________
conv2d (Conv2D)                 (None, 40, 40, 64)   5248        input_1[0][0]                    
__________________________________________________________________________________________________
conv2d_1 (Conv2D)               (None, 40, 40, 64)   36928       conv2d[0][0]                     
__________________________________________________________________________________________________
batch_normalization_v2 (BatchNo (None, 40, 40, 64)   256         conv2d_1[0][0]                   
__________________________________________________________________________________________________
max_pooling2d (MaxPooling2D)    (None, 20, 20, 64)   0           batch_normalization_v2[0][0]     
__________________________________________________________________________________________________
dropout (Dropout)               (None, 20, 20, 64)   0           max_pooling2d[0][0]              
__________________________________________________________________________________________________
conv2d_2 (Conv2D)               (None, 20, 20, 128)  73856       dropout[0][0]                    
__________________________________________________________________________________________________
conv2d_3 (Conv2D)               (None, 20, 20, 128)  147584      conv2d_2[0][0]                   
__________________________________________________________________________________________________
batch_normalization_v2_1 (Batch (None, 20, 20, 128)  512         conv2d_3[0][0]                   
__________________________________________________________________________________________________
max_pooling2d_1 (MaxPooling2D)  (None, 10, 10, 128)  0           batch_normalization_v2_1[0][0]   
__________________________________________________________________________________________________
dropout_1 (Dropout)             (None, 10, 10, 128)  0           max_pooling2d_1[0][0]            
__________________________________________________________________________________________________
conv2d_4 (Conv2D)               (None, 10, 10, 256)  295168      dropout_1[0][0]                  
__________________________________________________________________________________________________
conv2d_transpose (Conv2DTranspo (None, 20, 20, 128)  295040      conv2d_4[0][0]                   
__________________________________________________________________________________________________
concatenate (Concatenate)       (None, 20, 20, 256)  0           conv2d_transpose[0][0]           
                                                                 conv2d_3[0][0]                   
__________________________________________________________________________________________________
dropout_2 (Dropout)             (None, 20, 20, 256)  0           concatenate[0][0]                
__________________________________________________________________________________________________
conv2d_5 (Conv2D)               (None, 20, 20, 128)  295040      dropout_2[0][0]                  
__________________________________________________________________________________________________
conv2d_6 (Conv2D)               (None, 20, 20, 128)  147584      conv2d_5[0][0]                   
__________________________________________________________________________________________________
batch_normalization_v2_2 (Batch (None, 20, 20, 128)  512         conv2d_6[0][0]                   
__________________________________________________________________________________________________
conv2d_transpose_1 (Conv2DTrans (None, 40, 40, 64)   73792       batch_normalization_v2_2[0][0]   
__________________________________________________________________________________________________
concatenate_1 (Concatenate)     (None, 40, 40, 128)  0           conv2d_transpose_1[0][0]         
                                                                 conv2d_1[0][0]                   
__________________________________________________________________________________________________
dropout_3 (Dropout)             (None, 40, 40, 128)  0           concatenate_1[0][0]              
__________________________________________________________________________________________________
conv2d_7 (Conv2D)               (None, 40, 40, 64)   73792       dropout_3[0][0]                  
__________________________________________________________________________________________________
conv2d_8 (Conv2D)               (None, 40, 40, 64)   36928       conv2d_7[0][0]                   
__________________________________________________________________________________________________
batch_normalization_v2_3 (Batch (None, 40, 40, 64)   256         conv2d_8[0][0]                   
__________________________________________________________________________________________________
dropout_4 (Dropout)             (None, 40, 40, 64)   0           batch_normalization_v2_3[0][0]   
__________________________________________________________________________________________________
conv2d_9 (Conv2D)               (None, 40, 40, 1)    65          dropout_4[0][0]                  
==================================================================================================
Total params: 1,482,561
Trainable params: 1,481,793
Non-trainable params: 768
__________________________________________________________________________________________________
Epoch 1/20
3845/3845 [==============================] - 80s 21ms/step - loss: 0.2952 - maeOverFscore_keras: 8850.4062 - fscore_keras: 0.5144
…
