…
2020-05-14 20:09:41.186412: I tensorflow/core/common_runtime/gpu/gpu_device.cc:1149] Created TensorFlow device (/job:localhost/replica:0/task:0/device:GPU:0 with 6294 MB memory) -> physical GPU (device: 0, name: GeForce RTX 2070 SUPER, pci bus id: 0000:08:00.0, compute capability: 7.5)
Model: "model"
__________________________________________________________________________________________________
Layer (type)                    Output Shape         Param #     Connected to                     
==================================================================================================
input_1 (InputLayer)            [(None, 40, 40, 9)]  0                                            
__________________________________________________________________________________________________
conv2d (Conv2D)                 (None, 40, 40, 128)  10496       input_1[0][0]                    
__________________________________________________________________________________________________
conv2d_1 (Conv2D)               (None, 40, 40, 128)  147584      conv2d[0][0]                     
__________________________________________________________________________________________________
batch_normalization_v2 (BatchNo (None, 40, 40, 128)  512         conv2d_1[0][0]                   
__________________________________________________________________________________________________
max_pooling2d (MaxPooling2D)    (None, 20, 20, 128)  0           batch_normalization_v2[0][0]     
__________________________________________________________________________________________________
dropout (Dropout)               (None, 20, 20, 128)  0           max_pooling2d[0][0]              
__________________________________________________________________________________________________
conv2d_2 (Conv2D)               (None, 20, 20, 256)  295168      dropout[0][0]                    
__________________________________________________________________________________________________
conv2d_3 (Conv2D)               (None, 20, 20, 256)  590080      conv2d_2[0][0]                   
__________________________________________________________________________________________________
batch_normalization_v2_1 (Batch (None, 20, 20, 256)  1024        conv2d_3[0][0]                   
__________________________________________________________________________________________________
max_pooling2d_1 (MaxPooling2D)  (None, 10, 10, 256)  0           batch_normalization_v2_1[0][0]   
__________________________________________________________________________________________________
dropout_1 (Dropout)             (None, 10, 10, 256)  0           max_pooling2d_1[0][0]            
__________________________________________________________________________________________________
conv2d_4 (Conv2D)               (None, 10, 10, 512)  1180160     dropout_1[0][0]                  
__________________________________________________________________________________________________
conv2d_5 (Conv2D)               (None, 10, 10, 512)  2359808     conv2d_4[0][0]                   
__________________________________________________________________________________________________
batch_normalization_v2_2 (Batch (None, 10, 10, 512)  2048        conv2d_5[0][0]                   
__________________________________________________________________________________________________
max_pooling2d_2 (MaxPooling2D)  (None, 5, 5, 512)    0           batch_normalization_v2_2[0][0]   
__________________________________________________________________________________________________
dropout_2 (Dropout)             (None, 5, 5, 512)    0           max_pooling2d_2[0][0]            
__________________________________________________________________________________________________
conv2d_6 (Conv2D)               (None, 5, 5, 1024)   4719616     dropout_2[0][0]                  
__________________________________________________________________________________________________
conv2d_transpose (Conv2DTranspo (None, 10, 10, 512)  4719104     conv2d_6[0][0]                   
__________________________________________________________________________________________________
concatenate (Concatenate)       (None, 10, 10, 1024) 0           conv2d_transpose[0][0]           
                                                                 conv2d_5[0][0]                   
__________________________________________________________________________________________________
dropout_3 (Dropout)             (None, 10, 10, 1024) 0           concatenate[0][0]                
__________________________________________________________________________________________________
conv2d_7 (Conv2D)               (None, 10, 10, 512)  4719104     dropout_3[0][0]                  
__________________________________________________________________________________________________
conv2d_8 (Conv2D)               (None, 10, 10, 512)  2359808     conv2d_7[0][0]                   
__________________________________________________________________________________________________
batch_normalization_v2_3 (Batch (None, 10, 10, 512)  2048        conv2d_8[0][0]                   
__________________________________________________________________________________________________
conv2d_transpose_1 (Conv2DTrans (None, 20, 20, 256)  1179904     batch_normalization_v2_3[0][0]   
__________________________________________________________________________________________________
concatenate_1 (Concatenate)     (None, 20, 20, 512)  0           conv2d_transpose_1[0][0]         
                                                                 conv2d_3[0][0]                   
__________________________________________________________________________________________________
dropout_4 (Dropout)             (None, 20, 20, 512)  0           concatenate_1[0][0]              
__________________________________________________________________________________________________
conv2d_9 (Conv2D)               (None, 20, 20, 256)  1179904     dropout_4[0][0]                  
__________________________________________________________________________________________________
conv2d_10 (Conv2D)              (None, 20, 20, 256)  590080      conv2d_9[0][0]                   
__________________________________________________________________________________________________
batch_normalization_v2_4 (Batch (None, 20, 20, 256)  1024        conv2d_10[0][0]                  
__________________________________________________________________________________________________
conv2d_transpose_2 (Conv2DTrans (None, 40, 40, 128)  295040      batch_normalization_v2_4[0][0]   
__________________________________________________________________________________________________
concatenate_2 (Concatenate)     (None, 40, 40, 256)  0           conv2d_transpose_2[0][0]         
                                                                 conv2d_1[0][0]                   
__________________________________________________________________________________________________
dropout_5 (Dropout)             (None, 40, 40, 256)  0           concatenate_2[0][0]              
__________________________________________________________________________________________________
conv2d_11 (Conv2D)              (None, 40, 40, 128)  295040      dropout_5[0][0]                  
__________________________________________________________________________________________________
conv2d_12 (Conv2D)              (None, 40, 40, 128)  147584      conv2d_11[0][0]                  
__________________________________________________________________________________________________
batch_normalization_v2_5 (Batch (None, 40, 40, 128)  512         conv2d_12[0][0]                  
__________________________________________________________________________________________________
dropout_6 (Dropout)             (None, 40, 40, 128)  0           batch_normalization_v2_5[0][0]   
__________________________________________________________________________________________________
conv2d_13 (Conv2D)              (None, 40, 40, 1)    129         dropout_6[0][0]                  
==================================================================================================
Total params: 24,795,777
Trainable params: 24,792,193
Non-trainable params: 3,584
__________________________________________________________________________________________________
WARNING:tensorflow:From C:\Users\jh902\anaconda3\envs\cuda\lib\site-packages\tensorflow\python\data\ops\dataset_ops.py:410: py_func (from tensorflow.python.ops.script_ops) is deprecated and will be removed in a future version.
…
